cifar10_CNN.pth (torch, 251319 bytes, 10 tensors)

conv1.weight f4 [6, 3, 5, 5]
0	0x3e84cfb9	0.2593973
1	0x3ed48695	0.41508928
2	0x3eb39dcd	0.3508133
3	0x3e897e57	0.26854202
4	0x3e35d039	0.17755212
5	0xbcd798fa	-0.026318062
6	0x3e874709	0.26421383
7	0x3dcd04ce	0.10010682
8	0xbe05dd11	-0.13072611
9	0xbe18671b	-0.14883082
10	0x3e118453	0.14210634
11	0x3eda0af5	0.42586485
12	0x3f1d35da	0.61410296
13	0x3eb6e386	0.35720462
14	0x3db7b65b	0.089703284
15	0xbf05f0fa	-0.52320826
16	0xbf25cd50	-0.64766407
17	0xbee2d9ba	-0.44306737
18	0x3ccf742a	0.025323946
19	0xbbe59b11	-0.0070070107
20	0xbdff7c57	-0.12474888
21	0xbe590700	-0.21194077
22	0xbf03bcc5	-0.51459914
23	0xbea57b95	-0.32320848
24	0xbcbf5c9e	-0.023359593
25	0x3be3b404	0.00694895
26	0xbe3b9170	-0.18317199
27	0xbe63a926	-0.22232494
28	0xbe316c66	-0.17326507
29	0x3d9c96af	0.07645928
30	0xbe823864	-0.25433648
31	0x3d0eab53	0.034831356
32	0xbdd1d1fc	-0.102451295
33	0xbebb6ffd	-0.36608878
34	0xbe950f1b	-0.29113087
35	0x3d3681e9	0.044557486
36	0x3e83f402	0.257721
37	0x3f378e13	0.71701163
38	0x3ec46904	0.3836137
39	0x3e6b78cb	0.22995298
40	0xbea6e4ce	-0.3259644
41	0xbe6d06a1	-0.2314706
42	0xbe1719fd	-0.14756007
43	0x3e356e22	0.17717794
44	0x3e0e92ee	0.13923237
45	0xbd1d6bbf	-0.038432833
46	0x3c0adac4	0.008475009
47	0xbe923a2e	-0.28560013
48	0xbe87936a	-0.26479656
49	0xbda238ae	-0.07920967
50	0x3ca19dda	0.01972859
51	0xbe140176	-0.14453682
52	0xbea5680d	-0.32305947
53	0xbe508858	-0.20364511
54	0x3dd1f863	0.10252454
55	0xbe010638	-0.12600029
56	0xbe418602	-0.18898776
57	0xbeb2bdfc	-0.34910572
58	0xbe7ff6e9	-0.24996532
59	0xbdfa2c2e	-0.12215458
60	0x3e8eacb1	0.27866128
61	0x3ee8af08	0.45446038
62	0x3eebfe76	0.46092576
63	0x3ec5b315	0.3861319
64	0x3dffa6f0	0.12483013
65	0x3dfac484	0.12244514
66	0x3cd881c6	0.026429068
67	0x3dfd51bc	0.12369105
68	0x3c41be1c	0.011825111
69	0x3e3b4e5e	0.18291613
70	0x3dafb297	0.08578985
71	0x3d414f87	0.047194984
72	0xbe380a18	-0.179726
73	0xbc2f73ed	-0.010708791
74	0xbcdfd834	-0.027324773
75	0x3e3ec059	0.18628062
76	0xbd9ee41d	-0.07758353
77	0x3d76d129	0.060258064
78	0x3d929a8d	0.071583845
79	0xbe44cd28	-0.19218886
80	0x3e33be40	0.17553043
81	0xbe833fa8	-0.25634503
82	0xbe1fd9e6	-0.15610465
83	0x3e2f83d0	0.17140126
84	0xbaf13c42	-0.0018404799
85	0x3d5a60fd	0.05331515
86	0x3e50d413	0.203934
87	0xbee0d59f	-0.4391298
88	0xbee2ec1e	-0.44320768
89	0x3f089149	0.5334669
90	0xbd3c3b26	-0.045954846
91	0x3f3291d2	0.69753754
92	0xbe05f1e8	-0.13080561
93	0xbf36bd9f	-0.7138309
94	0x3e333dd4	0.17504054
95	0xbec786dd	-0.3897008
96	0x3efce8a2	0.49396235
97	0x3d48b593	0.049001288
98	0xbda795b9	-0.08182854
99	0xbdb74305	-0.0894833
100	0xbd7f3176	-0.06230303
101	0xbcc94cac	-0.024572693
102	0x3d100df1	0.035169546
103	0xbc98e664	-0.018664546
104	0x3d9a16ea	0.07523902
105	0x3e097b3c	0.13425916
106	0xbe04ee72	-0.12981585
107	0xbdd3729b	-0.10324594
108	0x3d86f115	0.065889515
109	0x3d95d1a9	0.0731538
110	0x3e3f2037	0.18664633
111	0x3ee6d56d	0.45084706
112	0xbec949d2	-0.39314133
113	0xbf1162de	-0.56791484
114	0x3ed2ea84	0.41194546
115	0x3be6a92a	0.007039209
116	0x3f207537	0.62678856
117	0xbdb9fe10	-0.09081662
118	0xbf32a883	-0.6978838
119	0xbc0bf663	-0.00854263
120	0xbe75d438	-0.24006736
121	0x3ecfb6ec	0.40569246
122	0x3e017efe	0.126461
123	0xbeaa0218	-0.33204722
124	0x3d4ff786	0.050773166
125	0xbdae4d68	-0.08510858
126	0xbde31b2c	-0.11089167
127	0x3c746dcf	0.0149187585
128	0x3b3061f7	0.002691386
129	0x3d79266c	0.060827658
130	0xbd2929b4	-0.041299537
131	0x3d664e04	0.056226745
132	0xbde7ebe3	-0.11324289
133	0x3dbc8608	0.09205252
134	0xbc36c4b8	-0.0111553
135	0xbc3e0f6d	-0.0116003575
136	0x3eaa83d2	0.33303696
137	0xbe657a1f	-0.22409867
138	0xbebad4d1	-0.3649049
139	0x3e856d87	0.26060125
140	0xbc819a57	-0.015820665
141	0x3f3dc4d2	0.7412845
142	0xbd85a6c1	-0.065259464
143	0xbf19f3d2	-0.60137665
144	0xbdc0ce52	-0.094143525
145	0xbd49eb29	-0.04929653
146	0x3f15de15	0.58541995
147	0x3dad0364	0.08447912
148	0xbe64a7fa	-0.22329703
149	0xbe12071b	-0.14260523
150	0x3d65b9cc	0.056085393
151	0x3d672652	0.05643303
152	0xbe8bb1e9	-0.27284172
153	0xbe560f61	-0.20904304
154	0xbe013d63	-0.12621073
155	0xbe84c7ef	-0.25933787
156	0xbe118dec	-0.14214295
157	0xbed485eb	-0.4150842
158	0xbe9167f9	-0.28399637
159	0xbe9495ff	-0.29020688
160	0xbea6400e	-0.32470745
161	0xbed879f9	-0.42280558
162	0xbeff0750	-0.49810266
163	0xbe0ae564	-0.13564068
164	0xbe28114d	-0.1641285
165	0x3dfaa1ee	0.12237917
166	0xbd9be425	-0.076118745
167	0xbe4ee3c6	-0.20204076
168	0xbe94dcf6	-0.2907483
169	0xbe0c1247	-0.13678847
170	0x3ead8aac	0.3389486
171	0x3e064b48	0.13114655
172	0x3e9a656b	0.301555
173	0xbd885038	-0.066559255
174	0x3e1f74d6	0.15571913
175	0xbd666082	-0.05624438
176	0x3e597ed0	0.21239781
177	0xbd508a5c	-0.0509132
178	0x3db53399	0.08847732
179	0x3d9f87e8	0.07789594
180	0x3df560ef	0.11981379
181	0x3e86da07	0.26338217
182	0x3e2aa455	0.1666425
183	0x3dd0feff	0.10204887
184	0xbcdc5083	-0.02689386
185	0xbe033a67	-0.12815247
186	0xbdb384b8	-0.087655485
187	0xbe5e6331	-0.21717526
188	0xbd63ee9b	-0.055647474
189	0xbdd5154b	-0.10404452
190	0xbd4e50e9	-0.05037013
191	0xbdae3578	-0.08506292
192	0xbd20e72b	-0.03928296
193	0xbe22e400	-0.15907288
194	0x3ad100b2	0.0015945642
195	0x3d7d4d7d	0.061841477
196	0x3caeac84	0.021322496
197	0x3d283054	0.041061714
198	0xbbe1c763	-0.006890224
199	0x3d49adb9	0.04923794
200	0x3d94892f	0.07252728
201	0x3eb323b5	0.3498818
202	0x3e95bb98	0.29244685
203	0x3e962b7d	0.29330054
204	0x3ddbd529	0.107340164
205	0x3d9d0f35	0.07668916
206	0x3ef0101a	0.46887285
207	0x3eadc2e0	0.3393774
208	0x3eab804f	0.3349633
209	0xbd2332a3	-0.039843213
210	0x3d0dec46	0.034649156
211	0x3e6ba45e	0.2301192
212	0x3e51c673	0.20485859
213	0x3eaeaebf	0.34117696
214	0x3db4eba8	0.0883401
215	0xbd91c313	-0.071172856
216	0x3d90d060	0.070709944
217	0xbd1d2e5b	-0.038374286
218	0x3e296e50	0.16545987
219	0x3e56ead4	0.20988017
220	0x3dc9dd89	0.098567076
221	0xbcc00dcf	-0.023444084
222	0xbc74c8e5	-0.014940475
223	0xbd26798d	-0.040643264
224	0x3c9b53f7	0.018960936
225	0xbedb8068	-0.42871404
226	0xbd8a63fc	-0.06757352
227	0x3e2b4b92	0.16728047
228	0x3ef46d17	0.4773948
229	0x3e8c2a1e	0.27375883
230	0xbd011f5d	-0.03152405
231	0x3e803ccc	0.25046384
232	0x3f02c65b	0.51083916
233	0x3e96248d	0.2932476
234	0xbd7ec1d5	-0.06219657
235	0x3e1c865d	0.1528563
236	0x3e1064a3	0.1410089
237	0x3ec642b8	0.38722777
238	0x3db88890	0.09010422
239	0xbe56c81c	-0.20974773
240	0xbd738e72	-0.05946202
241	0x3dc7f104	0.09762767
242	0x3e4c9061	0.19976951
243	0xbe43bd08	-0.19115078
244	0xbdfcc644	-0.12342504
245	0x3dcd703d	0.100311734
246	0xbe0d190f	-0.1377909
247	0x3e2e1ed0	0.17003942
248	0xbec163da	-0.37771493
249	0xbec0d129	-0.37659577
250	0xbdad5701	-0.0846386
251	0xbddec598	-0.10877532
252	0xbd9a3d19	-0.07531185
253	0xbe1b6ef4	-0.15179044
254	0xbea8a1fe	-0.3293609
255	0xbc0ca913	-0.008585232

conv1.bias f4 [6]
0	0xbe8b4167	-0.27198336
1	0xbdfc8737	-0.12330478
2	0x3eb1f848	0.34759736
3	0xbef97d45	-0.48728386
4	0x3e0bd70a	0.1365625
5	0xbd266af3	-0.04062934

conv2.weight f4 [16, 6, 5, 5]
0	0x3e947bf4	0.2900082
1	0x3e50296e	0.20328304
2	0xbd293d04	-0.041317955
3	0xbdd8b645	-0.1058164
4	0xbe3018f8	-0.17197025
5	0xbe2b5bb0	-0.16734195
6	0x3ed00b24	0.406335
7	0x3eaa5185	0.3326532
8	0xbe65d865	-0.22445829
9	0x3e08464c	0.13308066
10	0xbf3aadfe	-0.7292174
11	0x3ef34bfb	0.47518906
12	0x3ee60141	0.44922832
13	0xbc596960	-0.013269752
14	0xbe992540	-0.29911232
15	0xbf7e9e9d	-0.99460775
16	0x3e06d6df	0.13167904
17	0x3e9c1465	0.3048431
18	0x3ed2e831	0.41192773
19	0x3cc04bd1	0.023473652
20	0xbf370568	-0.71492624
21	0xbe9e07b2	-0.30865246
22	0xbece5719	-0.40300825
23	0x3f162694	0.58652616
24	0x3f459dcc	0.77193904
25	0xbed14980	-0.4087639
26	0x3eba3869	0.36371163
27	0x3e95e428	0.29275632
28	0xbcd0a90b	-0.025471231
29	0x3d4087ae	0.047004394
30	0x3bf48cc3	0.007463069
31	0xbe8dd845	-0.27704063
32	0x3dc1023b	0.094242536
33	0x3a12af38	0.00055955676
34	0x3d981e1a	0.074276164
35	0x3e2bfc94	0.1679557
36	0xbdc021e4	-0.09381464
37	0xbd45f698	-0.048330873
38	0x3e1530a9	0.14569344
39	0x3e0d6ead	0.1381175
40	0x3e5d998b	0.21640603
41	0x3eabe736	0.33574837
42	0x3e218473	0.15773182
43	0xbecde897	-0.40216514
44	0xbc9caeab	-0.019126257
45	0xbafd0f62	-0.0019306953
46	0xbeb7f8bc	-0.35931957
47	0x3deb7b63	0.114981435
48	0x3e4ad897	0.19809185
49	0x3cb679ae	0.022274818
50	0xbdbc2606	-0.0918694
51	0x3e52907c	0.20562929
52	0x3a469aea	0.00075761846
53	0xbe822b31	-0.25423577
54	0xbeb01918	-0.34394145
55	0x3c60d5aa	0.0137228165
56	0x3e912134	0.28345644
57	0xbe13a28a	-0.14417472
58	0x3daa2b22	0.08309008
59	0xbde88390	-0.113532186
60	0xbe028755	-0.12746938
61	0xbcea251c	-0.028582148
62	0xbe2bcb80	-0.16776848
63	0xbcb217e9	-0.021739917
64	0x3de5728d	0.112034895
65	0xbeafd8a0	-0.3434496
66	0x3ddee9a4	0.10884407
67	0x3e232228	0.15930998
68	0x3ca706a9	0.020388918
69	0xbd7bd610	-0.061483443
70	0xbea4bc12	-0.32174736
71	0xbde19435	-0.110145964
72	0x3e096903	0.13418965
73	0x3ec3af63	0.38219747
74	0x3dc21fbf	0.09478711
75	0xbda0dc68	-0.07854539
76	0xbe07e440	-0.13270664
77	0x3d578327	0.05261531
78	0xbe024902	-0.12723163
79	0x3dc10284	0.09424308
80	0xbe4feba7	-0.20304738
81	0xbef69a3e	-0.48164552
82	0xbe4574db	-0.19282858
83	0xbe1b0a2a	-0.15140596
84	0x3ea4b3e4	0.32168496
85	0x3e1e6fdd	0.1547236
86	0xbefdfd0e	-0.49607128
87	0xbedb7881	-0.42865375
88	0x3d24a9b1	0.040200893
89	0x3ea1ac5c	0.31576812
90	0x3ea71e7b	0.32640442
91	0x3eafad26	0.3431179
92	0x3dd45694	0.10368076
93	0xbda2f0f8	-0.079561174
94	0xbe29a471	-0.16566636
95	0x3e7c5b24	0.24644142
96	0x3e83a8ee	0.2571482
97	0x3dbdcd45	0.09267668
98	0x3efb8f22	0.4913264
99	0xbceef039	-0.029167281
100	0xbe67150d	-0.22566624
101	0xbe27246c	-0.16322488
102	0xbe5f619c	-0.21814579
103	0x3e600fe8	0.21881068
104	0x3e25c540	0.16188526
105	0x3e061467	0.1309372
106	0x3d4e2619	0.0503293
107	0x3d20ad48	0.039227754
108	0xbe5e656d	-0.21718378
109	0x3d9ccd29	0.07656319
110	0xbc7ec86f	-0.015550717
111	0x3df1fef1	0.11816204
112	0x3e9d01ea	0.30665523
113	0xbe17ca42	-0.14823249
114	0xbdd09827	-0.10185271
115	0xbecdd61d	-0.40202418
116	0xbf0e7ccf	-0.5565919
117	0x3e239c02	0.15977481
118	0x3e2d439f	0.16920327
119	0xbe54ae35	-0.2076958
120	0x3d94356c	0.07236752
121	0xbed7a79d	-0.42120066
122	0xbe8334ce	-0.25626224
123	0xbc9adbf0	-0.018903702
124	0x3f04641e	0.51715267
125	0xbe70b57b	-0.2350673
126	0xbd8d563e	-0.06901215
127	0xbe1f0d64	-0.15532452
128	0x3eb08c16	0.34481877
129	0xbe13bf5b	-0.14428465
130	0x3db6e1d5	0.08929793
131	0xbe4b7d6e	-0.19872066
132	0xbb156ea2	-0.0022801538
133	0x3c796141	0.015220941
134	0x3ba1a4d1	0.0049329777
135	0x3e10943d	0.14119048
136	0xbd21e8f2	-0.039528795
137	0xbf11c8f1	-0.5694724
138	0xbd258d9a	-0.040418245
139	0x3d9a2841	0.07527209
140	0x3d8adb75	0.06780139
141	0xbec3530d	-0.381493
142	0xbdfaecc9	-0.122521944
143	0xbe8ae38a	-0.27126724
144	0x3e598797	0.2124313
145	0x3cd4e784	0.025989302
146	0x3f04bbba	0.5184895
147	0x3d557eae	0.052122764
148	0xbeb65f2c	-0.35619485
149	0xbedabc58	-0.4272182
150	0xbcdab4ac	-0.02669748
151	0x3b3c379f	0.0028719676
152	0xbcc74e35	-0.024329284
153	0x3e72eb88	0.2372266
154	0x3ea6540c	0.32485998
155	0x3dbc2f05	0.09188656
156	0x3e3eb531	0.18623807
157	0xbe58320d	-0.21112843
158	0x3e391e00	0.1807785
159	0x3dd6a8e8	0.10481435
160	0xbe460fb7	-0.19341932
161	0xbd32a48a	-0.043613948
162	0xbcd416c5	-0.025889764
163	0x3ec4ddb7	0.38450405
164	0x3e663d47	0.22484313
165	0xbe973b15	-0.29537264
166	0xbdb2282e	-0.0869907
167	0xbd1c21de	-0.038118236
168	0x3ea7c95a	0.32770807
169	0xbd4f342a	-0.050586857
170	0xbe01227c	-0.12610811
171	0xbd17b07b	-0.03703354
172	0x3e415e56	0.18883643
173	0x3e1999fd	0.15000148
174	0xbe1794ab	-0.14802806
175	0xbd8d83f0	-0.06909931
176	0xbe6922ec	-0.22767228
177	0xbe47f391	-0.19526507
178	0xbe15a7ff	-0.14614867
179	0x3e1844b2	0.14869955
180	0x3ddbf26f	0.107396
181	0xbdc34eda	-0.09536524
182	0xbd538e4f	-0.051649388
183	0xbd1e989a	-0.03871975
184	0x3e669903	0.22519307
185	0xbcf210ce	-0.029549029
186	0xbd7a061a	-0.061040975
187	0xbd26f2b7	-0.040758815
188	0x3d57f8f6	0.052727662
189	0x3ee47688	0.44621682
190	0xbe25dc62	-0.1619735
191	0xbe772b91	-0.24137713
192	0x3f1ccff6	0.61254823
193	0x3e77e8ee	0.2420995
194	0x3e881d58	0.26584888
195	0xbe5eb029	-0.21746887
196	0xbcf4d65f	-0.029887376
197	0x3dab1222	0.08353068
198	0xbd15fbb7	-0.036617007
199	0xbea9b656	-0.33146924
200	0x3ebb836e	0.3662371
201	0xbd886ad5	-0.066610016
202	0xbe9d6cf7	-0.30747196
203	0xbde13171	-0.10995758
204	0xbe541472	-0.20710924
205	0x3eeebab3	0.46626815
206	0x3e8350af	0.25647494
207	0xbed2cc91	-0.41171697
208	0xbf0cbe3e	-0.54977787
209	0xbf11b24a	-0.5691267
210	0x3f312d62	0.69209874
211	0x3ea77fed	0.32714787
212	0xbea75932	-0.32685238
213	0xbf06c763	-0.5264799
214	0xbf513e21	-0.81735426
215	0x3f5ff87c	0.8748853
216	0x3e99bc13	0.30026302
217	0xbec3239d	-0.38113108
218	0xbf0257c1	-0.5091515
219	0xbf6b8043	-0.91992587
220	0x3f14d28a	0.5813376
221	0xbcea2ef5	-0.028586844
222	0x3e2fddf5	0.17174514
223	0xbd39c685	-0.04535534
224	0xbef0cada	-0.47029763
225	0x3f4ad61c	0.79232955
226	0x3f198ab1	0.5997725
227	0x3e185953	0.14877824
228	0xbd95c158	-0.07312268
229	0xbc9718cb	-0.01844444
230	0x3f05d22d	0.5227383
231	0x3eb6dc0a	0.3571475
232	0xbe1fda6e	-0.15610668
233	0xbd7a6183	-0.06112815
234	0xbe406c11	-0.18791224
235	0xbd8324c1	-0.064034946
236	0x3e3e5cab	0.18590038
237	0xbd35bc2d	-0.04436891
238	0xbf11b95e	-0.5692347
239	0x3e4e9b79	0.20176496
240	0x3ded8214	0.11597076
241	0x3e67df1e	0.22643706
242	0x3e0bb935	0.1364487
243	0xbf04c4d6	-0.5186285
244	0xbeed9caa	-0.46408588
245	0x3eaa41e8	0.33253407
246	0x3cea71e9	0.02861877
247	0xbc91d3f5	-0.017801264
248	0xbe2c3182	-0.1681576
249	0xbf3484ae	-0.70514953
250	0x3eaf0c8b	0.34189257
251	0x3da4a17b	0.080386125
252	0x3d919c88	0.07109934
253	0xbef4a2ef	-0.47780558
254	0x3e077110	0.13226724
255	0x3e03e96c	0.12882012

conv2.bias f4 [16]
0	0xbed3bb1c	-0.4135369
1	0xbeba7994	-0.36420882
2	0xbd927b3d	-0.07152412
3	0xbf5ce47b	-0.86286134
4	0x3eef342d	0.46719494
5	0xbf94fc69	-1.163953
6	0x3ef62f93	0.4808317
7	0xbec1f208	-0.37879968
8	0xbf00244b	-0.5005538
9	0xbeb620d5	-0.35571924
10	0x3ec49d0f	0.38401076
11	0x3f5b2142	0.8559762
12	0xbea36608	-0.3191378
13	0x3f895600	1.072937
14	0x3e721add	0.2364306
15	0x3f2f5f45	0.68504745

fc1.weight f4 [120, 400]
0	0x3ec23918	0.37934184
1	0xbe971a7d	-0.29512396
2	0xbe16c780	-0.1472454
3	0x3e8e8f29	0.27843598
4	0xbe515c30	-0.20445323
5	0xbdece204	-0.115665466
6	0xbe4478cb	-0.19186704
7	0xbece0ddb	-0.40244946
8	0xbe00ccea	-0.12578169
9	0x3ea42c58	0.32065082
10	0xbe9657a0	-0.29363728
11	0xbecea3d7	-0.40359375
12	0x3e694589	0.22780432
13	0xbe4fbd51	-0.20287062
14	0x3e1f0015	0.15527375
15	0xbe7a111b	-0.24420588
16	0x3e4b68ec	0.19864243
17	0x3c785c61	0.015158744
18	0x3ea3ea42	0.32014662
19	0xbeb9a65b	-0.36259732
20	0x3f0fb5e8	0.5613694
21	0xbd3fc6bd	-0.04682039
22	0xbe8aaaf4	-0.27083552
23	0xbe8a5c45	-0.2702352
24	0x3ea93176	0.33045548
25	0xbc80997f	-0.015698193
26	0xbda57e55	-0.080807365
27	0xbd9a28cb	-0.07527312
28	0xbd39c829	-0.045356903
29	0x3e9a480a	0.30133086
30	0xbed884bd	-0.4228877
31	0xbf190f27	-0.59788746
32	0xbf01f0b6	-0.5075792
33	0xbefca99d	-0.49348155
34	0x3e2eb5f8	0.17061603
35	0xbd603f65	-0.054747958
36	0xbf34d1f4	-0.70632863
37	0x3daf1f97	0.08550947
38	0xbeac6ee3	-0.3367835
39	0x3ede3107	0.4339678
40	0xbefb3a8e	-0.4906811
41	0xbe8e47fe	-0.277893
42	0xbee12986	-0.43976992
43	0xbee64623	-0.44975385
44	0xbeee7359	-0.46572378
45	0xbe3c034c	-0.18360633
46	0x3d915a9e	0.07097362
47	0x3dc0ff57	0.09423702
48	0x3ea02cf2	0.3128429
49	0x3d802874	0.06257716
50	0x3ebefb4c	0.373011
51	0xbee1281e	-0.4397592
52	0xbeba4ff3	-0.3638912
53	0xbe8a2114	-0.26978362
54	0x3ec060f1	0.3757396
55	0xbd6e433a	-0.05816958
56	0xbf20c1e2	-0.6279584
57	0xbe146cef	-0.1449468
58	0xbe7b3008	-0.24530041
59	0x3eedf8b4	0.46478808
60	0x3de667dc	0.11250278
61	0xbeb36a6c	-0.3504213
62	0xbeef4ffc	-0.4674071
63	0xbec27d14	-0.37986052
64	0x3ec2fdc5	0.38084236
65	0xbec3982d	-0.38202038
66	0xbeb7d05c	-0.35901153
67	0x3e0f7886	0.1401082
68	0xbeee0a75	-0.46492353
69	0x3ec3778f	0.38177153
70	0xbe93a412	-0.28836113
71	0xbd89b9c2	-0.067248836
72	0x3cde37ac	0.027126156
73	0xbc84714f	-0.016167311
74	0x3e0b4e01	0.13603975
75	0xbbfc2fd6	-0.007696132
76	0x3d7ef9b4	0.062249854
77	0xbe1fcbfe	-0.1560516
78	0x3e9a7090	0.30164003
79	0x3ee6194d	0.44941178
80	0x3e85f20f	0.2616124
81	0x3e2bcc69	0.16777195
82	0x3cd5ee41	0.026114585
83	0x3e04e4ec	0.12977952
84	0x3e0ae986	0.13565645
85	0x3d1ea029	0.03872696
86	0x3e11cbdc	0.14237922
87	0x3d4324b8	0.04764244
88	0x3d62adfe	0.055341713
89	0x3e316359	0.17323054
90	0x3e7e916d	0.24860163
91	0x3df2f9b0	0.1186403
92	0x3d0f692b	0.035012405
93	0x3e55f706	0.20895013
94	0xbe8c29f0	-0.27375746
95	0x3ebd6adb	0.36995587
96	0x3e1862dd	0.14881463
97	0x3e902f59	0.28161123
98	0x3ebea3c9	0.37234333
99	0xbe375720	-0.1790433
100	0xbd8e3f77	-0.06945699
101	0xbe732375	-0.23743995
102	0xbf960cce	-1.1722658
103	0xbf47288f	-0.7779626
104	0x3ab16c0c	0.0013536229
105	0xbdaea0b0	-0.085267425
106	0xbdac34d6	-0.08408515
107	0xbe714a0b	-0.23563401
108	0xbea3fa8b	-0.32027087
109	0xbe27e1be	-0.16394708
110	0xbe9a9f26	-0.30199546
111	0x3d1ac7f9	0.037788365
112	0x3e24c4d9	0.16090716
113	0x3e89ecb3	0.269384
114	0xbd04fcc5	-0.032467622
115	0xbe96f33d	-0.2948245
116	0xbe158e46	-0.14605054
117	0xbe91227b	-0.2834662
118	0x3e7bc11d	0.24585386
119	0x3eb27077	0.3485143
120	0xbe518325	-0.20460184
121	0x3ebe3fce	0.37158054
122	0x3eb8315d	0.3597516
123	0xbe41097d	-0.18851276
124	0x3e5b8e46	0.21440992
125	0x3d523280	0.05131769
126	0xbedf8735	-0.43657842
127	0xbec8b84f	-0.39203116
128	0xbeecd3e4	-0.4625541
129	0xbe91c1c9	-0.2846816
130	0x3ea5d847	0.3239157
131	0xbd02148e	-0.031757884
132	0xbd805068	-0.06265336
133	0xbe3b382f	-0.18283151
134	0xbeedf709	-0.46477535
135	0xbe53e2b3	-0.20691948
136	0x3ddb939c	0.10721514
137	0xbe0c4e42	-0.13701728
138	0x3d47f938	0.048821658
139	0xbe01487a	-0.12625304
140	0x3f2be30f	0.6714334
141	0x3ebb0fa1	0.3653536
142	0x3e9ff936	0.3124482
143	0x3d98aa58	0.074543655
144	0xbe1706c1	-0.1474867
145	0x3ebf4a10	0.37361193
146	0xbd43a963	-0.04776896
147	0x3e8e5ea3	0.27806577
148	0xbe052df1	-0.13005807
149	0xbdcb9d1d	-0.09942076
150	0xbf391a11	-0.723054
151	0xbe08935b	-0.13337462
152	0x3f13b677	0.57700294
153	0x3e16062f	0.14650796
154	0x3cbb0140	0.022827744
155	0xbd449d51	-0.04800159
156	0x3e85939f	0.26089188
157	0x3ebac38e	0.3647732
158	0xbe2a5ce7	-0.16637002
159	0xbd90aeef	-0.07064616
160	0x3e4d04cb	0.2002136
161	0x3e5180b6	0.20459256
162	0x3c65fa54	0.014036734
163	0xbd9fd302	-0.078039184
164	0x3e584caf	0.21123002
165	0xbc7a0535	-0.0152600305
166	0xbdc33e71	-0.09533394
167	0x3e86bcc9	0.26315907
168	0x3e1785b5	0.14797099
169	0xbbcf15ec	-0.006319752
170	0xbe8fa839	-0.2805803
171	0x3eb32545	0.34989372
172	0x3e91a204	0.2844392
173	0xbc141dd2	-0.009040313
174	0x3d851135	0.064974226
175	0xbe7ba355	-0.24574025
176	0xbee51137	-0.44739696
177	0xbe9bad0b	-0.3040546
178	0xbbc81a13	-0.006106624
179	0xbf012b19	-0.50456387
180	0x3e305d9a	0.17223206
181	0xbb95c8c5	-0.0045710527
182	0xbd12f209	-0.035875354
183	0x3c6be6cd	0.014398289
184	0xbd2f612e	-0.042817287
185	0xbe17633a	-0.14783946
186	0xbe8ba637	-0.2727525
187	0xbe8c84cb	-0.27445063
188	0xbe5caac4	-0.21549517
189	0xbdc54a28	-0.09633285
190	0x3d8b3b35	0.06798402
191	0xbec2ad89	-0.38023022
192	0xbee3a9fc	-0.44465625
193	0xbe2eaccf	-0.17058109
194	0x3d3357ec	0.04378502
195	0xbef83943	-0.48481187
196	0xbd55fab5	-0.052241046
197	0xbdec24a8	-0.11530429
198	0x3b5aee2c	0.0033406122
199	0x3cec643b	0.028856387
200	0x3f3c5a18	0.7357497
201	0x3debe983	0.11519148
202	0x3e70f5a8	0.2353121
203	0x3e1a284f	0.15054439
204	0x3e8e640b	0.27810702
205	0x3e7a09a5	0.24417742
206	0xbeae72a6	-0.34071845
207	0xbeba1764	-0.3634597
208	0xbeebbf88	-0.46044564
209	0xbf03b7cd	-0.5145233
210	0x3d8d568c	0.06901273
211	0x3e9166d7	0.28398773
212	0x3d859ebe	0.06524418
213	0x3d3fa07a	0.0467839
214	0x3cb0390c	0.021511577
215	0xbb32e8b9	-0.0027299358
216	0x3dc8bf84	0.09802154
217	0xbdc0d620	-0.09415841
218	0xbe0ab463	-0.13545375
219	0xbe7fca4c	-0.24979514
220	0x3d34949d	0.04408704
221	0xbe21d7b7	-0.15804945
222	0x3e2e4d56	0.17021689
223	0xbe14a62a	-0.14516512
224	0xbe473c4e	-0.19456598
225	0xbdad28da	-0.084550574
226	0x3e9010b4	0.28137743
227	0x3ed6b95c	0.41938293
228	0xbd445533	-0.047932815
229	0xbeaa8ecf	-0.3331208
230	0x3e2f163e	0.17098328
231	0xbd9d16c8	-0.07670361
232	0xbea12285	-0.3147165
233	0xbe4378a6	-0.19088992
234	0xbd2993c0	-0.04140067
235	0xbdc9cc73	-0.09853449
236	0xbe8d7c69	-0.2763398
237	0x3e7626e5	0.24038275
238	0xbd824105	-0.06360058
239	0xbeb6c22c	-0.35695016
240	0xbf0f6785	-0.56017333
241	0xbef94300	-0.4868393
242	0x3ec7d528	0.39029813
243	0xbeca36c1	-0.394949
244	0xbdd92c14	-0.1060411
245	0xbe5e4787	-0.21706973
246	0xbf045412	-0.5169078
247	0xbec368e0	-0.3816595
248	0x3e674fd3	0.22589044
249	0xbe2fb01e	-0.17157027
250	0x3dab1222	0.08353068
251	0xbd608ec8	-0.054823667
252	0xbf2994d2	-0.66242707
253	0xbeb0e46b	-0.3454927
254	0xbf08488d	-0.53235704
255	0xbea3db25	-0.32003132

fc1.bias f4 [120]
0	0xbdb9f4af	-0.09079873
1	0xbe854b78	-0.2603414
2	0xbe2ed622	-0.17073873
3	0xbb25ae7c	-0.0025281003
4	0x3f5b6183	0.85695666
5	0x3eba0359	0.3633068
6	0xbd854de0	-0.06508994
7	0xbd67be8d	-0.056578208
8	0xbd354be7	-0.04426184
9	0x3e729f1d	0.2369351
10	0x3ea09e0a	0.31370574
11	0x3cd93579	0.026514756
12	0xbf9762c8	-1.1827021
13	0xbf09f11e	-0.5388354
14	0x3f336870	0.70081234
15	0x3d5a8ea1	0.053358678
16	0x3effe0e3	0.49976262
17	0x3ebf75fd	0.37394705
18	0xbf938c8d	-1.1527268
19	0x3f400100	0.75001526
20	0x3dda35b4	0.10654774
21	0x3e92fe21	0.2870951
22	0x3f457486	0.77130926
23	0xbeb523f9	-0.35379007
24	0x3ccf227e	0.025285002
25	0x3e96e59e	0.2947206
26	0xbd072046	-0.032989763
27	0xbd8bca6e	-0.0682572
28	0xbd83bf87	-0.06433015
29	0x3ec58397	0.38576958
30	0xbbdd5b92	-0.006755301
31	0xbd6f521c	-0.058427915
32	0xbd70546f	-0.058674272
33	0x3f635abd	0.8881033
34	0x3f8aeafc	1.0852962
35	0x3b9d2033	0.004795098
36	0x3c7232dc	0.014782634
37	0x3e6b66b2	0.22988394
38	0x3db4ad11	0.08822072
39	0xbd17ba9c	-0.0370432
40	0xbd5eee65	-0.05442657
41	0xbc93a497	-0.018022818
42	0x3c06cfc8	0.00822825
43	0x3fa3b914	1.2790856
44	0x3f431a83	0.7621233
45	0x3e44dda3	0.19225173
46	0xbd06bdac	-0.03289573
47	0xbd55097c	-0.052010998
48	0x3f579da9	0.84224945
49	0xbb2e6020	-0.0026607588
50	0xbea98d99	-0.33115843
51	0x3f2841c6	0.6572536
52	0xbd7588a6	-0.05994477
53	0xbea56602	-0.32304388
54	0xbc161f3f	-0.009162723
55	0xbecc1d47	-0.39866087
56	0xbf11df62	-0.5698148
57	0xbd8ca389	-0.06867129
58	0xbbe4753d	-0.0069719837
59	0x3e84b43b	0.25918755
60	0xbd263407	-0.04057696
61	0xbbe6c3af	-0.0070423703
62	0x3bb8ba34	0.0056374315
63	0xbd6b83be	-0.057498686
64	0x3f49dd62	0.7885343
65	0xbeddc971	-0.4331775
66	0x3fc4b358	1.5367231
67	0x3f23f0d3	0.64039344
68	0x3e6cb74a	0.23116794
69	0xbf6df8aa	-0.92957556
70	0x3f2d291d	0.6764086
71	0xbf164635	-0.5870088
72	0x3e38038e	0.17970106
73	0x3f80a3fa	1.0050042
74	0x3e7ed35e	0.24885318
75	0x3f0464bf	0.51716226
76	0xbedefee3	-0.43553838
77	0xbc9a5afd	-0.018842215
78	0xbdacd711	-0.08439458
79	0x3f2b4cca	0.66914046
80	0xbf71ae27	-0.9440636
81	0x3f165110	0.5871744
82	0xbe984386	-0.29739016
83	0x3b668236	0.0035172827
84	0x3f607d6c	0.8769138
85	0xbd1b93ef	-0.037982877
86	0xbc7f7302	-0.015591385
87	0xbd690712	-0.05689151
88	0x3e5db4a7	0.21650945
89	0x3f383df5	0.7196954
90	0xbb868fc1	-0.0041064923
91	0x3ca27dfb	0.019835463
92	0x3eb0bdb9	0.34519747
93	0x3f4b4854	0.7940724
94	0xbee5efa0	-0.44909382
95	0xbe981782	-0.29705435
96	0xbc72db6a	-0.01482282
97	0xbef98978	-0.48737693
98	0x3f34f9bf	0.7069358
99	0xbf894e6b	-1.0727056
100	0x3cff1377	0.031137211
101	0xbf7b9ab6	-0.98282945
102	0xbea04f9c	-0.31310737
103	0xbf84fa84	-1.0388951
104	0xbd96d0a8	-0.07364017
105	0x3f1c9fed	0.6118153
106	0xbf8456a9	-1.0338947
107	0xbd29dd46	-0.04147079
108	0x3f0f8782	0.56066144
109	0x3ddbb2fb	0.10727497
110	0xbe0c3710	-0.1369288
111	0xbe547754	-0.20748645
112	0xbd34fdc6	-0.04418733
113	0x3f012a46	0.5045513
114	0x3eddb00e	0.43298382
115	0x3c6f6188	0.014610656
116	0x3f85b292	1.044512
117	0xbd4a2851	-0.049354855
118	0xbd177e0e	-0.03698545
119	0xbdf16bbf	-0.11788129

fc2.weight f4 [84, 120]
0	0x3e1a1d4e	0.15050241
1	0x3e34583e	0.17611787
2	0xbe8e2458	-0.27762103
3	0x3ce49986	0.027905237
4	0xbe9ee055	-0.31030527
5	0x3d42cad5	0.047556717
6	0xbdae302b	-0.08505281
7	0x3dd85e05	0.10564808
8	0xbbc00509	-0.0058599752
9	0xbf2debdd	-0.67938024
10	0x3e265695	0.16243966
11	0x3c917872	0.017757628
12	0x3e02feaa	0.12792459
13	0xbc8b02f4	-0.016969182
14	0x3e9044fb	0.28177628
15	0xbe184f23	-0.14873938
16	0x3dbcbe3d	0.092159726
17	0x3d9e447f	0.07727908
18	0xbda33b43	-0.07970288
19	0x3e09ca63	0.1345611
20	0x3f1d7aa4	0.6151526
21	0x3e472449	0.19447435
22	0xbdf683b7	-0.12036841
23	0x3e382a85	0.1798497
24	0x3e1a516c	0.15070122
25	0xbf854b01	-1.0413514
26	0xbd4955b0	-0.049153984
27	0xbd2b9d7c	-0.041898236
28	0xbd09b451	-0.03361923
29	0xbded2e3b	-0.115810834
30	0x3cab2239	0.020890342
31	0x3ed834d1	0.42227796
32	0x3d722f0d	0.059126902
33	0x3befd7ad	0.0073194117
34	0xbde795ba	-0.11307855
35	0xbb878bf7	-0.004136558
36	0x3ddb195f	0.106981985
37	0x3e328ef5	0.17437346
38	0xbefcd1f2	-0.49378926
39	0x3da7ec34	0.08199349
40	0x3cfb2a78	0.0306599
41	0x3d756866	0.059914015
42	0x3d80f8da	0.06297465
43	0xbd6204f0	-0.05518049
44	0x3dd111f7	0.10208505
45	0xbdf34302	-0.11878015
46	0x3d054a5c	0.032541618
47	0x3c614d1e	0.013751296
48	0xbf7b6b8f	-0.98210996
49	0xbd442896	-0.04789027
50	0xbe222bf7	-0.15837084
51	0xbf7b4699	-0.981546
52	0x3dab3fd2	0.08361782
53	0xbe21f70d	-0.15816899
54	0xbe8e26d6	-0.27764004
55	0x3f26648e	0.64997184
56	0x3e2f73ef	0.17134069
57	0x3d8262da	0.06366511
58	0xbd49eb74	-0.04929681
59	0xbe1b32b8	-0.15156066
60	0x3c4d8235	0.012543251
61	0x3de4def2	0.11175336
62	0xbdc71c91	-0.097222455
63	0x3cfc9ce2	0.030836526
64	0xb9479e2f	-0.00019037047
65	0xbe6a3e74	-0.22875386
66	0x3e952c28	0.2913525
67	0xbebe9464	-0.37222588
68	0x3c3a5722	0.011373313
69	0x3cae564d	0.021281386
70	0x3ca33409	0.019922273
71	0x3efb83fc	0.49124134
72	0x3e52759c	0.20552677
73	0x3e963a26	0.2934124
74	0x3e602b8c	0.21891612
75	0x3dadbbb0	0.08483064
76	0xbde43bd8	-0.11144227
77	0xbd22669c	-0.039648637
78	0x3df8cb5e	0.12148164
79	0xbea3ce9d	-0.3199357
80	0xbe2920e6	-0.16516456
81	0x3bbb40fd	0.0057145343
82	0x3d4bfc28	0.04980102
83	0xbdc943ca	-0.09827383
84	0xbed65a24	-0.41865647
85	0xbd59ab56	-0.053141914
86	0xbd7105df	-0.05884349
87	0x3c77f13a	0.0151331965
88	0xbdf6d0d7	-0.12051552
89	0xbf5c0810	-0.859498
90	0x3d514a2e	0.051096134
91	0x3c6b9626	0.01437906
92	0x3e31b913	0.17355756
93	0xbf293913	-0.66102713
94	0x3f1be72d	0.6089962
95	0xbecc0749	-0.39849308
96	0x386fd411	5.7179543e-05
97	0x3ea595b8	0.3234079
98	0x3e50e3c3	0.20399384
99	0xbd1e1d0c	-0.03860192
100	0x3e8d4733	0.27593383
101	0x3e318c65	0.17338713
102	0xbe337504	-0.17525107
103	0xba7234c2	-0.0009239429
104	0x3ed0470e	0.4067921
105	0x3dfeba38	0.12437862
106	0xbe6b5774	-0.2298258
107	0xbd4fc070	-0.050720632
108	0x3eb5cf0c	0.35509527
109	0xbd700eae	-0.05860775
110	0x3ea286b4	0.31743395
111	0x3dcb48a1	0.09925962
112	0xbcbe2fe2	-0.023216192
113	0xbf8085e7	-1.0040864
114	0x3f3d0501	0.7383576
115	0x3d86c667	0.06580811
116	0xbf1c9c09	-0.6117559
117	0xbdbcdff5	-0.09222404
118	0x3cb91ea6	0.022597622
119	0xbd65cedf	-0.05610549
120	0xbe1bb8b4	-0.15207177
121	0xbeb9d792	-0.3629728
122	0xbea57501	-0.3231583
123	0x3db4b8ee	0.08824335
124	0x3bb909cc	0.00564692
125	0xbe50a3c2	-0.20374969
126	0x3c9cb4ba	0.019129146
127	0x3d82624a	0.063664034
128	0xbd95b5ba	-0.07310052
129	0x3d8a765f	0.06760859
130	0x3eff2457	0.49832413
131	0x3cedb75c	0.029018097
132	0xbe44bce5	-0.19212683
133	0x3eab6ecc	0.3348297
134	0xbe69947c	-0.22810549
135	0x3d8ea05f	0.06964182
136	0x3ec5b409	0.38613918
137	0x3d91d19f	0.0712006
138	0xbcf60aa1	-0.030034365
139	0xbd997ccf	-0.074945085
140	0x3eba9900	0.36444855
141	0x3cd5749e	0.026056584
142	0xbde5e89a	-0.11226006
143	0x3e5e2ed1	0.21697547
144	0xbe7e4dbe	-0.24834344
145	0xbeb48bc9	-0.35262898
146	0x3e03d5d8	0.12874544
147	0xbcdc996e	-0.02692863
148	0xbda7f071	-0.082001574
149	0x3f1853ec	0.59503055
150	0x3cd9cc26	0.026586603
151	0x3e81f350	0.25380945
152	0xbd9b27e4	-0.07575968
153	0xbe41f096	-0.18939433
154	0xbc3eb7b3	-0.011640477
155	0xbda067eb	-0.07832321
156	0xbeda4780	-0.42632675
157	0xbe8a378e	-0.2699551
158	0xbd2cf22d	-0.042223144
159	0x3ce8d2c5	0.028420815
160	0xbcfbed46	-0.03075279
161	0x3d2493e4	0.040180102
162	0x3f13a4e7	0.57673496
163	0x3e86bcdb	0.2631596
164	0x3e2c1a63	0.1680694
165	0x3bc2500a	0.0059299516
166	0x3d5bdd19	0.053677652
167	0xbd6b9d07	-0.0575228
168	0xbd67ddb6	-0.056607924
169	0xbb5585d5	-0.003258099
170	0xbeb1016f	-0.34571406
171	0xbee0ae8a	-0.43883163
172	0xbcf0bdea	-0.029387433
173	0x3d540917	0.05176648
174	0xbdadbd8b	-0.08483418
175	0xbedca643	-0.43095598
176	0xbea30afe	-0.31844324
177	0xbe8960a8	-0.26831555
178	0x3b2900b2	0.0025787768
179	0xbdb92452	-0.09040131
180	0xbd93c92e	-0.07216106
181	0xbcada8bc	-0.021198623
182	0xbcb2a73b	-0.021808257
183	0x3d30a487	0.043125656
184	0xbe8aef14	-0.27135527
185	0xbe27a48d	-0.16371365
186	0x3e90b9ee	0.28266853
187	0x3d565b36	0.05233308
188	0xbf151a11	-0.582429
189	0xbf291385	-0.6604541
190	0x3db32edf	0.08749174
191	0xbeca4f2b	-0.39513525
192	0xbda285d8	-0.07935685
193	0xbeb8c7e1	-0.36089996
194	0xbe934669	-0.28764656
195	0x3e8b0a0c	0.27156103
196	0xbeaaf581	-0.3339043
197	0xbd0e76a1	-0.034781102
198	0x3e2a7e51	0.16649748
199	0x3bc78ff6	0.0060901595
200	0x3ee73429	0.45156983
201	0x3e5c5258	0.21515787
202	0x3d8bf138	0.06833118
203	0x3d29450d	0.041325618
204	0xbeed5549	-0.4635413
205	0xbe598d84	-0.2124539
206	0x3d2efd8f	0.04272228
207	0xbc7ef977	-0.015562407
208	0xbed8fddb	-0.42381176
209	0x3eb46f02	0.35240942
210	0x3c595985	0.013265972
211	0xbd7ec562	-0.062199958
212	0xbe555a60	-0.20835257
213	0x3e9f6ef8	0.3113935
214	0x3f2e94a4	0.6819556
215	0xbe489945	-0.19589718
216	0x3b41fdbb	0.0029600698
217	0x3e73af8f	0.23797439
218	0x3f0819ea	0.5316454
219	0x3e1c63da	0.15272465
220	0x3f0edd85	0.5580676
221	0x3ec7d2d1	0.39028028
222	0x3e58c808	0.21170056
223	0xbd8e9388	-0.06961733
224	0xbe198acd	-0.14994355
225	0xbd159ca4	-0.036526337
226	0xbed7ce41	-0.42149547
227	0xbd5c0e76	-0.05372473
228	0x3f48038c	0.7813041
229	0x3d21e74d	0.039527226
230	0x3e02aa08	0.12760174
231	0xbf273d93	-0.6532833
232	0x3da87792	0.08225931
233	0xbdfdd3a5	-0.123938836
234	0x3e75d26a	0.24006048
235	0xbccd3e2c	-0.02505406
236	0xbe3c53a4	-0.18391281
237	0x3c0d996c	0.008642536
238	0xbd707dd5	-0.058713753
239	0x3e2a0cbe	0.16606423
240	0x3ebf1614	0.37321532
241	0xbd0c2f44	-0.034224764
242	0x3f2344ac	0.6377666
243	0x3db213af	0.086951606
244	0xbceea706	-0.029132377
245	0xbddb9c9f	-0.107232325
246	0x3d904353	0.07044091
247	0xbd8936da	-0.06699915
248	0x3d95442a	0.07288392
249	0x3dacf430	0.084450126
250	0xbf4dca54	-0.80386853
251	0xbd808f9e	-0.06277393
252	0xbeb2b107	-0.34900686
253	0xbe96f432	-0.2948318
254	0x3ec1d753	0.37859592
255	0x3e3c6f86	0.18401918

fc2.bias f4 [84]
0	0xbf081977	-0.53163856
1	0x3ea157d9	0.31512335
2	0xbe42e9b8	-0.19034469
3	0xbe9b82ab	-0.3037313
4	0x3e4f04c2	0.20216659
5	0xbf5eb338	-0.86992216
6	0xbf1a74ba	-0.6033436
7	0xbd6833eb	-0.056690138
8	0xbd9ec7bf	-0.07752942
9	0x3d7526cd	0.059851456
10	0xbceef8b9	-0.029171335
11	0xbde4dee8	-0.111753285
12	0x3deafbad	0.114737846
13	0xbf13147f	-0.5745315
14	0xbe658388	-0.22413456
15	0xbd4e9bee	-0.050441675
16	0xbefc9ba0	-0.49337482
17	0xbded225a	-0.11578818
18	0xbc5f675c	-0.013635483
19	0xbf818948	-1.012002
20	0xbe07c0d7	-0.13257156
21	0xbf366fac	-0.7126415
22	0x3f913d81	1.1346895
23	0xbe9f3eb4	-0.31102526
24	0x3e640db9	0.2227086
25	0xbf44b1d4	-0.76833844
26	0x3ebf84b7	0.3740594
27	0x3e32f3f9	0.1747588
28	0xbebe0f91	-0.3712125
29	0xbe55fbad	-0.20896788
30	0xbea6b137	-0.3255708
31	0x3efd3fab	0.49462637
32	0xbdeade4d	-0.11468182
33	0x3ef9d315	0.48793855
34	0x3eec00bc	0.4609431
35	0x3ed94349	0.42434147
36	0xbf0735c1	-0.52816397
37	0xbe638852	-0.22219971
38	0xbe32f365	-0.1747566
39	0xbcacc676	-0.021090727
40	0x3e172020	0.14758348
41	0x3f39e237	0.726108
42	0xbe29dc68	-0.16587985
43	0x3ea605eb	0.3242639
44	0x3f845d9d	1.0341069
45	0xbe405817	-0.18783604
46	0x3f1d8cce	0.61542976
47	0xbe7d5032	-0.24737623
48	0x3f0224cc	0.508374
49	0xbe99b529	-0.30021027
50	0xbe96a70f	-0.2942433
51	0x3f6435a3	0.89144343
52	0x3ee5e27f	0.44899365
53	0x3f1a131e	0.6018542
54	0x3f9dbc5e	1.232311
55	0x3d5b475a	0.053534843
56	0xbe15daa8	-0.14634192
57	0xbf2d13ba	-0.67608225
58	0x3e2b85ae	0.16750214
59	0x3e656305	0.22401054
60	0x3ec30463	0.38089284
61	0x3dbbcc88	0.091698706
62	0x3e273d20	0.16331911
63	0x3d18e9e3	0.037332427
64	0xbed726b4	-0.42021716
65	0x3e969f06	0.294182
66	0xbe425404	-0.18977362
67	0x3f0e1327	0.55497974
68	0x3f1589b3	0.5841324
69	0x3f9c1063	1.2192501
70	0x3f19b598	0.60042715
71	0xbeb61ccc	-0.35568845
72	0x3c01baad	0.007918042
73	0x3f03c060	0.51465416
74	0x3fb43232	1.4077818
75	0xbf3e794e	-0.74403846
76	0xbd5b7e5c	-0.053587303
77	0x3ee319ad	0.44355527
78	0x3f520286	0.820351
79	0x3f00af98	0.50267935
80	0xbe9d1e53	-0.30687198
81	0x3f881df5	1.0634142
82	0x3f7919eb	0.9730517
83	0xbe02b080	-0.12762642

fc3.weight f4 [10, 84]
0	0x3e55f5af	0.20894502
1	0xbd2f4438	-0.042789668
2	0xbe06092a	-0.13089433
3	0x3eae774e	0.34075397
4	0x3e301f7c	0.1719951
5	0x3ea416d7	0.32048675
6	0xbca62c0f	-0.02028468
7	0xbe8cf45a	-0.27530175
8	0x3e29cfe1	0.16583206
9	0xbec96fb1	-0.39343026
10	0xbede1897	-0.43378136
11	0xbb228743	-0.002479986
12	0x3e6fe681	0.23427774
13	0x3edd5717	0.43230507
14	0x3f098897	0.53724045
15	0x3e5bd64a	0.21468464
16	0x3d715dcd	0.058927346
17	0x3e6deecc	0.23235625
18	0xbc90c91b	-0.01767402
19	0x3e842647	0.25810453
20	0x3ebe476b	0.37163863
21	0xbe87c2c7	-0.2651579
22	0xbf26718f	-0.65017027
23	0xbe5cd91b	-0.21567194
24	0xbf3609c3	-0.71108645
25	0xbc022b24	-0.007944856
26	0x3e867dca	0.26267844
27	0xbe63c76b	-0.2224404
28	0xbeae1f32	-0.34008175
29	0x3ea36d87	0.319195
30	0xbea34285	-0.31886688
31	0x3d24a14d	0.04019289
32	0x3e4204e8	0.18947184
33	0xbeadfdca	-0.33982688
34	0xbe11fdd3	-0.14256983
35	0xbdb467b3	-0.088088416
36	0x3e2303b6	0.15919384
37	0xbda307b0	-0.07960451
38	0xbdd4be5f	-0.10387873
39	0x3e0de811	0.13858058
40	0x3e06a500	0.1314888
41	0xbf2a528a	-0.66532195
42	0xbc5bae98	-0.013408326
43	0x3c80bad9	0.015714096
44	0xbdc3a8bd	-0.09553669
45	0xbeea347d	-0.4574317
46	0xbda0d6d3	-0.078534745
47	0x3ef1bed6	0.4721591
48	0x3e8b9fea	0.27270442
49	0x3dc5a583	0.096507095
50	0xbe6e5144	-0.23273188
51	0xbd921c61	-0.07134319
52	0xbb888d98	-0.00416727
53	0x3ae8cdc0	0.0017761514
54	0xbe8f0e13	-0.27940425
55	0x3eda462f	0.4263167
56	0xbee8820f	-0.45411727
57	0x3eb4b7c3	0.3529645
58	0x3dbac9d3	0.09120526
59	0xbf40449c	-0.7510469
60	0xbf709700	-0.9398041
61	0x3dfbdcca	0.122979715
62	0xbe2b11d1	-0.16706015
63	0xbe9344f4	-0.28763545
64	0xbddf3c89	-0.10900218
65	0x3e01675f	0.12637089
66	0xbd847957	-0.06468456
67	0xbea545d1	-0.32279828
68	0xbf25bb1d	-0.6473864
69	0xbf54755a	-0.82991564
70	0xbe9b484f	-0.30328605
71	0x3de43519	0.1114294
72	0xbee45314	-0.44594634
73	0xbe7c5cb9	-0.24644746
74	0xbdf8753a	-0.12131734
75	0xbf4466f9	-0.76719624
76	0xbe1fa7bf	-0.15591334
77	0xbd95cdb6	-0.07314627
78	0x3e10fe9f	0.1415963
79	0x3e6c0dff	0.23052214
80	0x3d554c8c	0.052074954
81	0xbecc9032	-0.39953762
82	0xbc55ff89	-0.013061413
83	0xbe2b8640	-0.16750431
84	0x3e5b4ce2	0.21416047
85	0x3e1a8702	0.15090564
86	0xbe1caab9	-0.152995
87	0xbcdd674f	-0.0270268
88	0xbf260069	-0.64844376
89	0x3e9cdda8	0.3063786
90	0x3ea68f2b	0.32531103
91	0x3e078f14	0.13238174
92	0xbe96c18c	-0.2944454
93	0x3d8f021e	0.06982826
94	0x3e9089bf	0.28230092
95	0x3e4b00cc	0.19824523
96	0xbe8d998b	-0.27656206
97	0xbe4e66ca	-0.20156398
98	0xbd1e1093	-0.038590025
99	0xbeb42cd2	-0.35190445
100	0x3e5c7a8c	0.21531123
101	0xbe4d13f0	-0.20027137
102	0xbcf257da	-0.029582907
103	0xbdb7e3a2	-0.089789644
104	0xbe9b3119	-0.30310896
105	0x3ee82eee	0.45348305
106	0xbf000f45	-0.500233
107	0x3e98bc94	0.29831374
108	0xbcc86e97	-0.024466796
109	0x3e4125b2	0.18862036
110	0x3ed0ad57	0.40757248
111	0xbef494b0	-0.4776969
112	0xbd386373	-0.045016717
113	0x3e1f82aa	0.15577188
114	0xbdb48463	-0.08814313
115	0xbe5578f7	-0.20846926
116	0xbd78053b	-0.060551863
117	0xbf1c4e1d	-0.6105669
118	0xbea5114f	-0.32239768
119	0xbe5e1e8b	-0.21691339
120	0xbf5ba0aa	-0.8579203
121	0x3e257772	0.16158846
122	0xbd8df49b	-0.069314204
123	0xbd282d3a	-0.041058756
124	0x3e7e013c	0.24805158
125	0xbf329336	-0.69755876
126	0x3c699e2b	0.014258902
127	0xbe0fe2ce	-0.14051363
128	0x3d957251	0.07297195
129	0x3da7ffe8	0.08203107
130	0xbe7fba34	-0.24973375
131	0xbe82df46	-0.2556097
132	0xbf2d92c0	-0.6780205
133	0x3e9201c9	0.28516987
134	0x3e8ca47f	0.2746925
135	0xbd1152d7	-0.035479393
136	0xbdf7ab52	-0.12093224
137	0xbf0bb9ce	-0.5458039
138	0xbf70ecb9	-0.9411121
139	0xbd2d2729	-0.042273674
140	0xbe84af69	-0.25915077
141	0xbdbb682a	-0.09150727
142	0xbf037600	-0.5135193
143	0xbeef54a5	-0.46744266
144	0x3e228faf	0.15875123
145	0x3ec25be4	0.37960732
146	0x3e59f4be	0.21284768
147	0x3e058470	0.13038802
148	0x3e9948d4	0.29938376
149	0xbd8461ca	-0.06463964
150	0xbbb4bf9e	-0.0055160066
151	0xbeb195ad	-0.34684506
152	0xbeb9760e	-0.3622288
153	0xbe9082e4	-0.28224862
154	0x3e7c22bc	0.24622625
155	0x3e866a2c	0.26252878
156	0xbdec15fc	-0.11527631
157	0xbf3942b6	-0.7236742
158	0xbee1b59e	-0.44083875
159	0x3dc4baca	0.0960594
160	0x3dee617c	0.116396874
161	0x3cfee9e0	0.03111738
162	0xbee2ca8b	-0.44295153
163	0x3ca0d35c	0.019632034
164	0x3ec7ea66	0.3904602
165	0xbf125e0f	-0.5717477
166	0xbf1fc1fd	-0.6240538
167	0xbdbdbee0	-0.09264922
168	0x3eb02716	0.3440482
169	0x3e3c397e	0.18381307
170	0xbe957515	-0.2919089
171	0xbe8618a8	-0.26190686
172	0x3e96bf1c	0.2944268
173	0xbea23240	-0.31678963
174	0x3ea9de6a	0.331775
175	0xbe2ad526	-0.16682872
176	0x3e9c8bab	0.30575308
177	0x3e2cafdf	0.16863964
178	0xbcc4e17c	-0.0240333
179	0xbef278a5	-0.4735767
180	0x3ec68a59	0.38777426
181	0xbd446d68	-0.0479559
182	0x3e8205dd	0.25395098
183	0x3c8f806b	0.01751729
184	0xbe268fbd	-0.1626577
185	0xbf285b28	-0.65764093
186	0xbdffc1dd	-0.12488148
187	0x3ed2a2ba	0.41139776
188	0x3e841d24	0.25803483
189	0x3f0b405c	0.5439508
190	0xbd8a21f2	-0.06744756
191	0xbdc67db9	-0.096919484
192	0xbbfe6d1a	-0.0077644708
193	0x3e20312f	0.15643762
194	0xbea2034d	-0.31643143
195	0xbdc9ed66	-0.09859733
196	0x3e66dfba	0.22546282
197	0xbc31238d	-0.010811699
198	0x3cdd042b	0.026979527
199	0x3e8dbe5e	0.276843
200	0xbd92be14	-0.07165161
201	0x3dc2ca4d	0.09511242
202	0x3e4a4a33	0.19754867
203	0xbf11d875	-0.5697091
204	0x3e4cbed5	0.19994672
205	0xbe03a65a	-0.12856427
206	0xbb872266	-0.0041239737
207	0x3e859479	0.26089838
208	0xbe4756c0	-0.19466686
209	0x3e844bdd	0.2583913
210	0xbe1c7434	-0.15278703
211	0x3eb8221c	0.35963523
212	0x3d92f3bd	0.07175396
213	0xbe38f384	-0.18061644
214	0x3e0ba6e1	0.13637878
215	0xbf8e46d4	-1.1115365
216	0x3c657078	0.014003865
217	0x3d9aed06	0.0756474
218	0x3ea6c8ea	0.3257516
219	0xbed94f8c	-0.42443502
220	0xbef2bc70	-0.4740939
221	0x3dd3f3c8	0.10349232
222	0xbe8c2d83	-0.27378473
223	0x3e1a4b39	0.15067758
224	0xbe17d8cb	-0.14828794
225	0xbe938b7c	-0.28817356
226	0x3e0881d7	0.1333078
227	0xbe8eb122	-0.27869517
228	0xbdb399fa	-0.08769603
229	0xbe956523	-0.29178724
230	0xbf265804	-0.6497805
231	0xbe4c9e72	-0.19982317
232	0xbec0ba0a	-0.37641937
233	0xbedc21e0	-0.42994595
234	0xbce36662	-0.02775878
235	0xbec8ccaf	-0.3921866
236	0xbd0cbb4f	-0.03435832
237	0x3ebaa512	0.36454064
238	0x3e9eccd7	0.31015655
239	0xbf181532	-0.5940734
240	0x3ea6448c	0.32474172
241	0x3e6061f5	0.21912368
242	0xbe914747	-0.28374693
243	0xbf602901	-0.87562567
244	0xbe465e43	-0.19371895
245	0x3d3411a9	0.043962155
246	0xbe83b19c	-0.25721443
247	0xbe1ad99b	-0.15122072
248	0xbf664d95	-0.8996213
249	0xbf6472cb	-0.8923766
250	0x3d9d6ff0	0.07687366
251	0xbcc8a5f3	-0.024493193
252	0x3e7cd21c	0.24689525
253	0xbf3fe5a2	-0.74959767
254	0xbe589677	-0.21151148
255	0x3e6c88c8	0.23099053

fc3.bias f4 [10]
0	0xbecd5e10	-0.40110826
1	0xbf35ac91	-0.7096644
2	0xbeeba1ca	-0.46021873
3	0x3f21cf6c	0.63207126
4	0x3f6c3cb2	0.92280114
5	0x3e3db6f9	0.1852683
6	0x3cd5861e	0.026064929
7	0xbe8db7b5	-0.2767922
8	0x3c60ea64	0.013727758
9	0xbeba2450	-0.3635583
